…
model.add(MaxPooling2D(pool_size=(2, 2), padding='same'))
model.add(Flatten())
model.add(Dense(512, activation='relu', kernel_constraint=maxnorm(3)))
model.add(Dropout(0.5))
model.add(Dense(num_classes, activation='softmax'))
sgd = SGD(learning_rate=0.01, momentum=0.9, decay=1e-6)
model.compile(loss='categorical_crossentropy', optimizer=sgd, metrics=['accuracy'])
print(model.summary())
Model: "sequential_1"
_________________________________________________________________
 Layer (type)                Output Shape              Param #   
=================================================================
 conv2d_2 (Conv2D)           (None, 32, 32, 32)        896       
                                                                 
 dropout_2 (Dropout)         (None, 32, 32, 32)        0         
                                                                 
 conv2d_3 (Conv2D)           (None, 32, 32, 32)        9248      
                                                                 
 max_pooling2d_1 (MaxPooling  (None, 16, 16, 32)       0         
 2D)                                                             
                                                                 
 flatten_1 (Flatten)         (None, 8192)              0         
                                                                 
 dense_2 (Dense)             (None, 512)               4194816   
                                                                 
 dropout_3 (Dropout)         (None, 512)               0         
                                                                 
 dense_3 (Dense)             (None, 10)                5130      
                                                                 
=================================================================
Total params: 4,210,090
Trainable params: 4,210,090
Non-trainable params: 0
_________________________________________________________________
None
epochs = 5
batch_size = 32
model.fit(X_train, y_train, validation_data=(X_test, y_test), epochs=epochs, batch_size=batch_size)
…
model.compile(loss='categorical_crossentropy', optimizer=sgd, metrics=['accuracy'])
print(model.summary())

# Fit the model
history = model.fit(X_train, y_train, validation_data=(X_test, y_test), epochs=epochs, batch_size=32)

# Evaluate the model
scores = model.evaluate(X_test, y_test, verbose=0)
print("Accuracy: %.2f%%" % (scores[1] * 100))
Model: "sequential_2"
_________________________________________________________________
 Layer (type)                Output Shape              Param #   
=================================================================
 conv2d_4 (Conv2D)           (None, 32, 32, 32)        896       
                                                                 
 dropout_4 (Dropout)         (None, 32, 32, 32)        0         
                                                                 
 conv2d_5 (Conv2D)           (None, 32, 32, 32)        9248      
                                                                 
 max_pooling2d_2 (MaxPooling  (None, 16, 16, 32)       0         
 2D)                                                             
                                                                 
 conv2d_6 (Conv2D)           (None, 16, 16, 64)        18496     
                                                                 
 dropout_5 (Dropout)         (None, 16, 16, 64)        0         
                                                                 
 conv2d_7 (Conv2D)           (None, 16, 16, 64)        36928     
                                                                 
 max_pooling2d_3 (MaxPooling  (None, 8, 8, 64)         0         
 2D)                                                             
                                                                 
 conv2d_8 (Conv2D)           (None, 8, 8, 128)         73856     
                                                                 
 dropout_6 (Dropout)         (None, 8, 8, 128)         0         
                                                                 
 conv2d_9 (Conv2D)           (None, 8, 8, 128)         147584    
                                                                 
 max_pooling2d_4 (MaxPooling  (None, 4, 4, 128)        0         
 2D)                                                             
                                                                 
 flatten_2 (Flatten)         (None, 2048)              0         
                                                                 
 dropout_7 (Dropout)         (None, 2048)              0         
                                                                 
 dense_4 (Dense)             (None, 1024)              2098176   
                                                                 
 dropout_8 (Dropout)         (None, 1024)              0         
                                                                 
 dense_5 (Dense)             (None, 512)               524800    
                                                                 
 dropout_9 (Dropout)         (None, 512)               0         
                                                                 
 dense_6 (Dense)             (None, 10)                5130      
                                                                 
=================================================================
Total params: 2,915,114
Trainable params: 2,915,114
Non-trainable params: 0
_________________________________________________________________
None
Epoch 1/5
1563/1563 [==============================] - 15s 9ms/step - loss: 1.9322 - accuracy: 0.2796 - val_loss: 1.6108 - val_accuracy: 0.4168
…
